data/processed/gcn_best.pt (torch, 62736 bytes, 4 tensors)

conv1.bias f4 [128]
0.0 -0.05423978 -0.0740656 -0.051909298 -0.04627192 0.0 0.13539721 0.018135782
0.0 -0.028362447 -0.041709404 0.08097086 -0.022822222 0.0 -0.051904675 0.03179887
-0.039819345 0.0 -0.012736612 0.0 0.09104521 -0.011300718 0.015767086 -0.01687504
-0.09619524 -0.057275943 -0.13492697 0.0 0.0 0.044790745 -0.018256737 0.061327968
-0.05431381 -0.032230996 0.028500404 -0.04067668 -0.034432337 0.09482028 -0.041306615 -0.040889
0.0 -0.035963763 -0.038939916 -0.054617222 -0.05217362 0.0 -0.058582533 0.0
-0.011846089 -0.053654872 0.063303955 -0.03113593 -0.07566665 -0.03638847 0.0 -0.039651312
0.1336314 0.00090267655 -0.0020891652 -0.041565754 0.10026818 -0.017742207 -0.07004444 -0.017410204
-0.059119463 0.0 -0.0620891 -0.0795162 -0.045761302 -0.004319624 0.0 0.0
0.039674535 -0.07419124 -0.05139436 -0.008134127 -0.07055221 0.0 -0.029343521 -0.019203786
0.012724279 0.07906512 -0.06553556 -0.06691272 -0.07263403 0.0 -0.012033253 0.01634072
-0.10844687 0.10501391 -0.032778297 -0.14706862 0.0 0.022591555 -0.007169721 -0.005134626
-0.017572355 0.13718137 0.11762402 -0.053024612 -0.066898406 0.013021131 -0.020541534 -0.0676068
0.069680475 -0.016286295 -0.07424786 0.0 -0.13614576 -0.023885496 -0.048124984 0.0048471475
0.074247815 0.0 0.0 0.0 0.13675058 0.094536304 0.0 -0.04788948
0.0 -0.022496823 -0.010937758 -0.01444806 0.0 -0.077592045 -0.04753343 0.0
00000000: 0000 0000 882a 5ebd b5af 97bd d89e 54bd
00000010: a087 3dbd 0000 0000 91a5 0a3e 7e91 943c
00000020: 0000 0000 5d58 e8bc 7bd7 2abd 0dd4 a53d
00000030: abf5 babc 0000 0000 ff99 54bd 883f 023d
00000040: 9c19 23bd 0000 0000 39ad 50bc 0000 0000
00000050: e975 ba3d a626 39bc fa29 813c 863d 8abc
00000060: 0302 c5bd 2e9a 6abd 4c2a 0abe 0000 0000
00000070: 0000 0000 8076 373d 278f 95bc 0933 7b3d
00000080: 2878 5ebd a604 04bd ae79 e93c 979c 26bd
00000090: ec08 0dbd 2331 c23d 2031 29bd 397b 27bd
000000a0: 0000 0000 bd4e 13bd 767f 1fbd 4fb6 5fbd
000000b0: 01b4 55bd 0000 0000 3df4 6fbd 0000 0000
000000c0: 1916 42bc 36c5 5bbd 81a5 813d c710 ffbc
000000d0: 1ef7 9abd 140c 15bd 0000 0000 6a69 22bd
000000e0: abd6 083e 99a1 6c3a 60ea 08bb da40 2abd
000000f0: 6759 cd3d 1b58 91bc 7673 8fbd d89f 8ebc
00000100: 4027 72bd 0000 0000 2451 7ebd 64d9 a2bd
00000110: 3470 3bbd a28b 8dbb 0000 0000 0000 0000
00000120: c481 223d 94f1 97bd e482 52bd 0045 05bc
00000130: ad7d 90bd 0000 0000 d361 f0bc 4251 9dbc
00000140: 7f79 503c e5ec a13d 8237 86bd 8909 89bd
00000150: 26c1 94bd 0000 0000 1f27 45bc f9dc 853c
00000160: 6519 debd 8811 d73d 8942 06bd 2899 16be
00000170: 0000 0000 ed11 b93c fbef eabb 5d40 a8bb
00000180: e6f3 8fbc 4679 0c3e dde4 f03d 5630 59bd
00000190: 0802 89bd 9556 553c b846 a8bc 6f75 8abd
000001a0: a3b4 8e3d d66a 85bc 430f 98bd 0000 0000
000001b0: cb69 0bbe 84ab c3bc b41e 45bd d2d4 9e3b
000001c0: 3d0f 983d 0000 0000 0000 0000 0000 0000
000001d0: 5808 0c3e 409c c13d 0000 0000 c227 44bd
000001e0: 0000 0000 424b b8bc 4834 33bc 8eb7 6cbc
000001f0: 0000 0000 94e8 9ebd 6ab2 42bd 0000 0000

conv1.lin.weight f4 [128, 53]
-0.13224375 -0.022906374 0.08571887 -0.17447779 0.1777355 0.076218426 0.0652646 0.16884892
0.012012657 0.16921301 0.15846844 -0.0502059 -0.13352552 -0.16045913 -0.118004695 0.17229523
0.09772332 0.17193274 0.008722318 -0.15736607 -0.099322125 0.17684002 -0.060373157 0.17709596
-0.014677133 -0.16223729 -0.04683482 0.06341341 0.0728741 -0.14229509 0.1598004 0.1567765
-0.051809862 -0.16670534 -0.1331495 0.128527 0.05874054 0.16788425 0.034086205 -0.09611974
0.016684111 0.013257932 -0.17004777 -0.14832133 0.14087509 0.04910049 0.057590947 -0.11579346
-0.15330881 0.103155956 -0.10685068 -0.04925084 -0.10216257 -0.59456325 0.08527887 -0.1401617
0.14538665 0.115636155 -0.013861593 -0.02860681 -0.124359205 0.10750048 -0.17369387 -0.05212754
-0.11245236 0.10337393 -0.10885326 -0.06309341 0.015017625 -0.04241932 0.048636198 -0.16810426
0.11825012 0.048918307 -0.005811057 0.1618187 0.0058010435 0.050908655 0.17081363 0.008439688
-0.05521968 -0.16607969 -0.1273795 -0.16141059 -0.007164074 -0.053643554 0.091124654 -0.15679346
-0.13245967 -0.030094557 0.17786606 0.14966439 -0.15241292 -0.079173736 0.17818566 0.1545579
0.09085825 -0.062747814 0.02754306 0.15914293 0.00087041943 0.14604901 0.022360753 0.2612173
0.021708112 -0.070878446 -0.2722372 -0.042695053 0.07665834 0.078391165 0.17588376 -0.107112266
-0.14518212 0.009041665 0.073224306 -0.16906907 -0.17034778 0.111595884 0.08039099 -0.14515178
0.02716241 -0.05829779 -0.060286477 0.16270836 -0.010315983 -0.11398781 -0.051383883 -0.1814948
0.1795461 -0.12839888 0.0919216 -0.036049 -0.006010769 -0.09648865 0.14491795 -0.03199076
0.14274783 -0.18044214 -0.18044071 0.14231257 -0.14114642 0.07004523 -0.04331308 -0.18054846
0.11932357 -0.10594284 0.14966746 -0.06835578 0.06862947 -0.019746672 0.0014083066 -0.05238627
-0.08882403 0.13272311 -0.08272715 -0.07807263 0.26974612 0.124898724 -0.12124244 -0.09760084
-0.115191795 0.17303519 -0.029670604 0.041031413 0.018628161 -0.06281336 0.12029435 0.114743516
0.14556454 -0.076446325 -0.04224012 0.012326773 0.08414516 -0.045634113 -0.0674751 -0.15320787
0.06467059 -0.083726674 -0.118393525 -0.17231573 -0.11606268 0.1070741 0.12728144 -0.045352064
0.14827801 -0.005739606 0.048755303 -0.17136517 0.1181518 0.06982452 -0.040487386 0.14515029
0.05064532 0.06870204 0.002492051 -0.13879289 0.039216556 0.029612131 0.13294683 -0.03443449
0.10056792 -0.16369295 0.06613366 0.11278312 -0.13072462 -0.17745611 -0.08268033 0.12500201
0.122634724 -0.12168957 0.05082615 0.10455872 -0.21042366 -0.015323546 -0.0108958315 -0.07192319
0.031216823 0.11699371 0.07644972 0.085638225 -0.17115778 -0.15096274 -0.058806367 0.15291439
-0.17574672 -0.17416021 0.044058107 -0.035011537 0.0908511 -0.1722178 -0.040887706 -0.17577091
-0.1155151 0.07309961 0.02269211 0.021688413 0.10137771 0.17739125 -0.011724111 0.116765454
-0.1072693 -0.05807799 -0.098891124 -0.111293174 -0.15701836 -0.13509902 -0.12812771 0.10224317
-0.11010909 -0.017663207 -0.05624044 -0.028461285 -0.031100579 0.07768431 -0.0790469 -0.03783842
00000000: e86a 07be 26a6 bbbc 608d af3d 4eaa 32be
00000010: 4b00 363e 6818 9c3d 72a9 853d bbe6 2c3e
00000020: bcd0 443c 2d46 2d3e 8d45 223e b4a4 4dbd
00000030: eaba 08be 664f 24be 72ac f1bd 296e 303e
00000040: 2a23 c83d 230f 303e 0ee8 0e3c 9224 21be
00000050: 6669 cbbd 8d15 353e d849 77bd a558 353e
00000060: 5c78 70bc 8821 26be ded5 3fbd e4de 813d
00000070: 043f 953d ceb5 11be b7a2 233e 058a 203e
00000080: 9436 54bd ceb4 2abe 5858 08be 959c 033e
00000090: ec99 703d d9e9 2b3e fa9d 0b3d 6dda c4bd
000000a0: 1ead 883c cc37 593c 0121 2ebe 8ce1 17be
000000b0: 8f41 103e 981d 493d 7ce4 6b3d 1f25 edbd
000000c0: fcfc 1cbe 6e43 d33d 88d4 dabd 40bb 49bd
000000d0: 9c3a d1bd 4c35 18bf b0a6 ae3d 8c86 0fbe
000000e0: 3de0 143e a6d2 ec3d bc1b 63bc d458 eabc
000000f0: 0ab0 febd 3629 dc3d cedc 31be b083 55bd
00000100: 6c4d e6bd b6b5 d33d 75ee debd 1e37 81bd
00000110: 7c0c 763c e2bf 2dbd c036 473d 8623 2cbe
00000120: 1e2d f23d 905e 483d ae6a bebb cdb3 253e
00000130: ae16 be3b 9885 503d c5e9 2e3e 9e46 0a3c
00000140: 082e 62bd cb10 2abe c66f 02be d148 25be
00000150: 9cc0 eabb 58b9 5bbd 909f ba3d 778e 20be
00000160: 82a3 07be dc88 f6bc 8522 363e 9f41 193e
00000170: 2212 1cbe d725 a2bd 4d76 363e 6d44 1e3e
00000180: e413 ba3d ed81 80bd fca1 e13c 5df6 223e
00000190: dc2c 643a df8d 153e e62d b73c 46be 853e
000001a0: 36d5 b13c b828 91bd ad62 8bbe 02e1 2ebd
000001b0: 0cff 9c3d 8c8b a03d df1a 343e ad5d dbbd
000001c0: 9faa 14be 7e23 143c a0f6 953d 7120 2dbe
000001d0: a66f 2ebe 628c e43d 08a4 a43d aba2 14be
000001e0: b483 de3c aac9 6ebd f4ee 76bd 059d 263e
000001f0: 5e04 29bc 7172 e9bd e877 52bd c6d9 39be
00000200: efda 373e ff7a 03be 6441 bc3d 1ea8 13bd
00000210: fcf5 c4bb d79b c5bd 5f65 143e be08 03bd
00000220: 7d2c 123e d3c5 38be 73c5 38be 63ba 113e
00000230: b088 10be e073 8f3d 0e69 31bd b2e1 38be
00000240: ea5f f43d 8ff8 d8bd 6d42 193e 1dfe 8bbd
00000250: 9c8d 8c3d c6c3 a1bc ee96 b83a fc92 56bd
00000260: 5fe9 b5bd 91e8 073e da6c a9bd 8be4 9fbd
00000270: 2a1c 8a3e e7ca ff3d f54d f8bd f3e2 c7bd
00000280: ade9 ebbd 2330 313e c40f f3bc 8e10 283d
00000290: 169a 983c 4aa4 80bd e25c f63d a6fe ea3d
000002a0: df0e 153e e48f 9cbd fa03 2dbd 3cf6 493c
000002b0: 4c54 ac3d d6ea 3abd 6330 8abd 86e2 1cbe
000002c0: 0472 843d e478 abbd 4e78 f2bd 8973 30be
000002d0: 45b2 edbd aa49 db3d 1156 023e 16c3 39bd
000002e0: 31d6 173e 4e13 bcbb a4b3 473d 5a7a 2fbe
000002f0: 92f9 f13d 2800 8f3d 1ad6 25bd 47a2 143e
00000300: 7871 4f3d a8b3 8c3d ae51 233b b91f 0ebe
00000310: 8aa1 203d 2495 f23c 3723 083e 2e0b 0dbd
00000320: 8ef6 cd3d 209f 27be 1671 873d d6fa e63d
00000330: addc 05be 0eb7 35be 4e54 a9bd 8700 003e
00000340: ea27 fb3d 6238 f9bd 152f 503d e222 d63d
00000350: 4d79 57be 9c0f 7bbc 6e84 32bc 774c 93bd
00000360: 6cba ff3c 669a ef3d ac91 9c3d 1863 af3d
00000370: fc43 2fbe fa95 1abe f2de 70bd 9795 1c3e
00000380: f3f6 33be 0e57 32be 4676 343d 4268 0fbd
00000390: 2410 ba3d dd59 30be de79 27bd 4afd 33be
000003a0: 2e93 ecbd 40b5 953d cee4 b93c e6ab b13c
000003b0: 1e9f cf3d 0da6 353e 7c16 40bc ba22 ef3d
000003c0: 02b0 dbbd 30e3 6dbd 6e87 cabd aded e3bd
000003d0: 6cc9 20be 6657 0abe e933 03be de64 d13d
000003e0: e080 e1bd 6eb2 90bc 605c 66bd a427 e9bc
000003f0: a4c6 febc f418 9f3d 57e3 a1bd 76fc 1abd

conv2.bias f4 [64]
0.027715402 -0.014059674 0.091403976 -0.023842288 -0.15360042 0.007518445 -0.04454192 0.02434001
-0.009240019 -0.05722533 0.06704146 -0.03319422 -0.010459793 0.017771725 -0.019606272 0.022534221
-0.01981154 -0.034315933 0.004501836 -0.0103207575 -0.07785028 -0.009713599 -0.028237544 -0.031936508
0.021006066 -0.008877832 0.012225563 0.034133483 0.038679585 0.009163825 0.08948124 -0.028113708
-0.07427502 -0.010335887 -0.058398936 -0.015595059 0.021747395 0.1425265 -0.005807933 0.024420345
0.027257793 -0.025936153 -0.13482729 -0.026306067 -0.011022986 0.007679577 -0.0014411991 -0.090205684
-0.014292107 0.0056196055 0.0228226 0.045285247 0.02302793 0.00801832 -0.007775696 0.0052110436
-0.051684793 0.03127329 -0.10839239 -0.06574281 -0.05698435 -0.01633951 -0.02160298 0.023931857
00000000: 690b e33c 8c5a 66bc 0232 bb3d e750 c3bc
00000010: 6e49 1dbe 4a5d f63b 9771 36bd b364 c73c
00000020: 7363 17bc 1c65 6abd 084d 893d aaf6 07bd
00000030: 8d5f 2bbc 0296 913c 559d a0bc b099 b83c
00000040: d04b a2bc dd8e 0cbd 2384 933b 6518 29bc
00000050: f86f 9fbd ca25 1fbc 6c52 e7bc dbcf 02bd
00000060: ea14 ac3c 5474 11bc ba4d 483c 8dcf 0b3d
00000070: 7c6e 1e3d de23 163c f141 b73d b84e e6bc
00000080: 801d 98bd da57 29bc b933 6fbd 6b82 7fbc
00000090: 9827 b23c 78f2 113e 7950 bebb 2d0d c83c
000000a0: bc4b df3c 0e78 d4bc 2a10 0abe d27f d7bc
000000b0: c199 34bc f6a4 fb3b 9ee6 bcba c2bd b8bd
000000c0: 7129 6abc ab24 b83b 76f6 ba3c 067d 393d
000000d0: 12a5 bc3c 465f 033c 44cb febb 67c1 aa3b
000000e0: 6fb3 53bd 6c18 003d d4fc ddbd 2ba4 86bd
000000f0: 6c68 69bd 70da 85bc bcf8 b0bc be0c c43c

conv2.lin.weight f4 [64, 128]
-0.11489552 0.019621829 -0.1162894 0.039663494 -0.11986414 -0.02168652 0.08794929 0.29956144
0.09352556 -0.0053631905 -0.060942862 -0.062446337 -0.0031229074 0.11663748 -0.007186309 0.052499305
0.090074725 0.07015717 0.17152649 0.120157436 0.38925835 -0.26725692 -0.15125982 -0.24290685
0.1892508 -0.14971107 -0.09697928 -0.10581812 -0.02740281 -0.17234233 -0.06927634 -0.11207046
0.17234418 0.26460618 -0.12240156 -0.09056799 -0.09350139 0.1542467 -0.0041330056 -0.009315271
-0.10185971 0.09288787 0.14497916 -0.14443082 -0.03081407 0.12951367 0.16915621 0.022164714
0.1578144 0.058746103 -0.15543927 -0.12158584 0.1354557 0.0921605 -0.11407332 -0.022605825
0.39583164 -0.09850463 -0.08472791 -0.19225626 -0.030160995 0.029271668 -0.13322374 -0.018125102
-0.07498407 -0.039307825 0.07179677 0.26297745 -0.18217383 0.16840698 0.09012443 0.13265161
-0.2671696 0.19367805 0.31657547 0.1585404 0.021668352 0.17034261 -0.2760355 0.1970881
0.101244844 0.21963489 -0.19480129 -0.11060941 0.06720275 0.01866157 0.04417545 -0.09433338
0.14685121 -0.019125288 -0.31807503 -0.026290407 -0.03850109 -0.10283928 0.02076875 0.06333
0.14297007 0.16000263 -4.8892816e-05 -0.09282274 -0.110309646 -0.3071657 -0.106530756 0.0027630832
0.025086766 0.0780883 0.049173567 -0.03488665 0.026038436 -0.18673082 -0.3167712 0.20569749
0.042159975 0.028860249 0.00736144 0.08041519 0.3177627 -0.01949009 -0.10485669 -0.05095428
-0.0623295 -0.029763542 0.11292469 -0.18921259 -0.025156401 0.042161714 0.15586582 0.00756198
-0.12166968 -0.18177958 -0.041398343 -0.043952778 0.28186864 -0.05261731 -0.0008303138 0.119956754
0.13226493 0.011622458 -0.075640336 -0.009386939 0.33789095 -0.14330125 0.10729746 0.09099342
-0.2043714 -0.0298739 0.08959333 0.061503634 -0.18742196 0.22255003 0.21302536 0.35542944
-0.037810892 -0.05197247 -0.03155079 -0.054326743 -0.031253807 0.2442052 0.094933584 0.34951526
-0.082645215 0.047904167 -0.20659521 -0.1606104 0.11336394 -0.18620951 -0.03285406 -0.032219
0.12600718 0.15937547 0.32679343 -0.011205543 -0.14781317 -0.1123331 0.12744872 0.12738718
0.01018549 -0.29044995 0.15347375 -0.026699603 -0.15133764 0.028955026 -0.12642401 -0.05891959
-0.28687426 -0.0761088 -0.12398807 -0.1636976 0.066538416 -0.018273015 -0.18926007 0.038313847
0.07741876 0.08047098 0.11207925 0.19283341 0.055762257 0.05734383 -0.051105455 -0.034886576
-0.011413432 -0.28064495 0.17022449 -0.12952746 -0.007316016 0.06413153 0.23501062 0.14417683
0.06704745 0.019453315 -0.18952234 -0.13455096 -0.0819471 -0.109110996 0.12535948 -0.11848292
0.20793815 0.06713683 0.13665757 -0.004630511 0.032587312 -0.20165965 0.065222755 0.2233684
-0.13435107 -0.16133118 -0.095521495 0.24760948 0.065108605 -0.022889392 -0.008794323 0.08432296
0.29698515 0.09281907 -0.037127785 -0.17325774 0.07658081 0.060019784 0.009011122 0.267799
-0.21131422 0.029932 0.11607914 -0.113136314 0.007224781 -0.11285061 -0.008444784 0.34027672
0.09511237 0.02352945 0.006715707 -0.032662738 0.025033526 -0.13113205 0.0011617535 -0.038388886
00000000: 584e ebbd f5bd a03c 2329 eebd 3076 223d
00000010: 557b f5bd eea7 b1bc c21e b43d 1e60 993e
00000020: 548a bf3d b4bd afbb 399f 79bd bbc7 7fbd
00000030: b1a9 4cbb a2df ee3d 217b ebbb 8309 573d
00000040: 1979 b83d 90ae 8f3d a4a4 2f3e 1a15 f63d
00000050: df4c c73e e6d5 88be dbe3 1abe 93bc 78be
00000060: f6ca 413e dc4d 19be 139d c6bd 2cb7 d8bd
00000070: dc7b e0bc 827a 30be c1e0 8dbd 3385 e5bd
00000080: fe7a 303e 767a 873e abad fabd b67b b9bd
00000090: a87d bfbd d9f2 1d3e 2a6e 87bb 149f 18bc
000000a0: d39b d0bd ff3b be3d 6b75 143e ace5 13be
000000b0: ca6d fcbc 3b9f 043e 4937 2d3e c692 b53c
000000c0: 199a 213e c19f 703d 792b 1fbe ff01 f9bd
000000d0: e6b4 0a3e a5be bc3d 469f e9bd da2f b9bc
000000e0: 72aa ca3e ccbc c9bd d485 adbd d3de 44be
000000f0: 3114 f7bc 23cb ef3c ce6b 08be 187b 94bc
00000100: 4091 99bd 3e01 21bd 2f0a 933d fba4 863e
00000110: c78b 3abe e172 2c3e 2893 b83d d3d5 073e
00000120: 74ca 88be 8a53 463e 2e16 a23e 6a58 223e
00000130: d481 b13c 4b6e 2e3e 8654 8dbe 76d1 493e
00000140: 7559 cf3d f8e7 603e fd79 47be 3087 e2bd
00000150: 98a1 893d 26e0 983c 51f1 343d dc31 c1bd
00000160: 2a60 163e a3ac 9cbc bbda a2be fb5e d7bc
00000170: 52b3 1dbd 679d d2bd 3a23 aa3c 29b3 813d
00000180: bf66 123e bbd7 233e 4312 4db8 d919 bebd
00000190: 06ea e1bd d344 9dbe cc2c dabd d814 353b
000001a0: c382 cd3c c2ec 9f3d 396a 493d 4ee5 0ebd
000001b0: 8f4e d53c 5d36 3fbe d62f a2be 5da2 523e
000001c0: f0af 2c3d 546c ec3c 3c38 f13b b8b0 a43d
000001d0: cbb1 a23e aea9 9fbc 1bbf d6bd 6fb5 50bd
000001e0: 384d 7fbd acd2 f3bc 0f45 e73d f2c0 41be
000001f0: cc14 cebc c3b1 2c3d 4a9b 1f3e 7cca f73b
00000200: f42d f9bd 6d24 3abe 4f91 29bd d407 34bd
00000210: 1651 903e 4085 57bd 6aa9 59ba e3ab f53d
00000220: 7570 073e 1f6c 3e3c 52e9 9abd adcb 19bc
00000230: 0b00 ad3e 90bd 12be c5be db3d c25a ba3d
00000240: bc46 51be 1cba f4bc b57c b73d 3ceb 7b3d
00000250: 8beb 3fbe 28e4 633e 5223 5a3e d9fa b53e
00000260: 98df 1abd 16e1 54bd 673b 01bd b885 5ebd
00000270: fe03 00bd ee10 7a3e 8a6c c23d aaf3 b23e
00000280: e541 a9bd 2937 443d b28d 53be 0d77 24be
00000290: 5a2b e83d b5ad 3ebe fb91 06bd 12f8 03bd
000002a0: 0708 013e 5333 233e 7851 a73e 7497 37bc
000002b0: 565c 17be e50e e6bd eb81 023e c971 023e
000002c0: 0be1 263c dbb5 94be 3928 1d3e 20b9 dabc
000002d0: 41f8 1abe 1733 ed3c 4c75 01be ab55 71bd
000002e0: 2fe1 92be eede 9bbd 75ed fdbd 58a0 27be
000002f0: 4b45 883d 4ab1 95bc 64cd 41be fbee 1c3d
00000300: ba8d 9e3d f8cd a43d ce89 e53d 1f76 453e
00000310: f766 643d 5de1 6a3d f453 51bd 3ae5 0ebd
00000320: 67ff 3abc b2b0 8fbe 544f 2e3e d9a2 04be
00000330: 31bb efbb 6457 833d a0a6 703e 17a3 133e
00000340: 2c50 893d 8f5c 9f3c 2512 42be bac7 09be
00000350: e2d3 a7bd 9675 dfbd 3c5e 003e 2ca7 f2bd
00000360: bded 543e 097f 893d f6ef 0b3e 8bbb 97bb
00000370: 467a 053d de7f 4ebe 8293 853d b0ba 643e
00000380: 5493 09be 0034 25be c6a0 c3bd 578d 7d3e
00000390: a957 853d 8982 bbbc 1016 10bc 84b1 ac3d
000003a0: 700e 983e ed17 be3d 4e13 18bd 7a6a 31be
000003b0: 66d6 9c3d 4ed7 753d 63a3 133c f31c 893e
000003c0: c162 58be f433 f53c e6ba ed3d 03b4 e7bd
000003d0: dbbd ec3b 381e e7bd fe5b 0abc c038 ae3e
000003e0: 46ca c23d d5c0 c03c 6f0f dc3b 5dc9 05bd
000003f0: 1c13 cd3c 7b47 06be fb45 983a aa3d 1dbd
