data/processed/gcn_latest.pt (torch, 62736 bytes, 4 tensors)

conv1.bias f4 [128]
000000 00 00 00 00 f4 79 64 bd 91 e3 9b bd 74 9d 54 bd
       0.0 -0.055780366 -0.07611764 -0.05190797
000010 e2 9a 46 bd 00 00 00 00 48 b7 0b 3e 9c 0b 82 3c
       -0.04848755 0.0 0.13644135 0.015874676
000020 00 00 00 00 3a d6 02 bd 95 09 30 bd dc d9 a3 3d
       0.0 -0.031942584 -0.042977888 0.08000538
000030 cd ed ca bc 00 00 00 00 31 43 5f bd d0 d6 f1 3c
       -0.024771595 0.0 -0.054507438 0.029521376
000040 52 41 2c bd 00 00 00 00 d5 ab 50 bc 00 00 00 00
       -0.04205448 0.0 -0.01273628 0.0
000050 c8 ed b7 3d c4 9c 28 bc 12 6c 6c 3c d2 cf 76 bc
       0.089809 -0.010291282 0.014430063 -0.015064197
000060 ba 96 c7 bd 34 fa 73 bd a8 8d 0b be 00 00 00 00
       -0.09745546 -0.059564784 -0.13628256 0.0
000070 00 00 00 00 74 ac 3c 3d 48 ea 8a bc 4f ca 00 3d
       0.0 0.0460629 -0.016957417 0.031442937
000080 44 09 66 bd 7a 58 18 bd da 96 de 3c b5 28 33 bd
       -0.05616118 -0.037193753 0.027171541 -0.043739993
000090 3a 08 0d bd 90 21 c2 3d a3 4d 2d bd 23 e5 32 bd
       -0.034431674 0.09479058 -0.04231037 -0.043675553
0000a0 00 00 00 00 85 d7 1d bd f1 60 2e bd a3 28 6b bd
       0.0 -0.038535614 -0.04257292 -0.0574118
0000b0 7d 89 5f bd 00 00 00 00 d9 f2 6f bd 00 00 00 00
       -0.05457448 0.0 -0.058581207 0.0
0000c0 0d d3 65 bc fb f6 66 bd 24 56 82 3d 63 0f ff bc
       -0.014027369 -0.056387883 0.06364086 -0.031135267
0000d0 2a 67 a0 bd 6d b5 1e bd 00 00 00 00 4a cb 31 bd
       -0.07832177 -0.03874724 0.0 -0.043406762
0000e0 89 18 0d 3e 80 3c 93 ba ae e9 08 bb 13 f0 36 bd
       0.1377889 -0.001123324 -0.0020891237 -0.044662546
0000f0 f7 a3 cd 3d a1 f9 7a bc e7 34 96 bd 6d ea a1 bc
       0.100410394 -0.015318305 -0.07334309 -0.019765103
000100 86 24 7c bd 00 00 00 00 c0 4f 7e bd dd 86 ab bd
       -0.06155827 0.0 -0.062087774 -0.083753325
000110 25 7e 45 bd f0 8a 8d bb 00 00 00 00 00 00 00 00
       -0.048216004 -0.004319541 0.0 0.0
000120 8b d8 23 3d 36 fb 9c bd 61 d5 58 bd 4e 44 05 bc
       0.040001433 -0.07665102 -0.05293787 -0.008133961
000130 fe 10 96 bd 00 00 00 00 b4 82 df bc 31 8f b6 bc
       -0.0732746 0.0 -0.027284004 -0.022285076
000140 50 ed bf ba 09 19 a1 3d 68 1e 8c bd d7 08 89 bd
       -0.0014642868 0.07866103 -0.06841737 -0.06691139
000150 68 f9 97 bd 00 00 00 00 bb 25 45 bc 7b 7e 7f 3c
       -0.07420617 0.0 -0.012032921 0.01559412
000160 cd 8a dc bd fe 7c d4 3d 2c 3e 12 bd 8c e4 16 be
       -0.10768662 0.10375403 -0.035703823 -0.14735621
000170 00 00 00 00 66 e1 b0 3c 40 25 09 bc bc 90 06 bc
       0.0 0.021591853 -0.0083706975 -0.008213218
000180 34 f3 8f bc c9 be 0a 3e 7c 7f ec 3d 0f 56 6b bd
       -0.017572023 0.13549341 0.11547753 -0.05745512
000190 53 2e 8f bd 67 23 2c 3c 06 46 a8 bc 05 7f 92 bd
       -0.069912575 0.010506487 -0.020541202 -0.07153133
0001a0 3d 6f 8d 3d 24 6a 85 bc 5e 8d 9b bd 00 00 00 00
       0.06905983 -0.016285963 -0.07595323 0.0
0001b0 b9 44 0a be ba 1b d8 bc e7 16 58 bd ac 05 b5 3b
       -0.13502778 -0.026380409 -0.052756216 0.005524358
0001c0 d8 8e 93 3d 00 00 00 00 00 00 00 00 00 00 00 00
       0.0720498 0.0 0.0 0.0
0001d0 bf 75 0b 3e 3c b0 bf 3d 00 00 00 00 0f 35 46 bd
       0.13619135 0.09359786 0.0 -0.048390444
0001e0 00 00 00 00 90 4a b8 bc 96 33 33 bc 55 af 80 bc
       0.0 -0.022496492 -0.010937592 -0.015708605
0001f0 00 00 00 00 6b 86 a5 bd 1e 0b 50 bd 00 00 00 00
       0.0 -0.08082279 -0.050791852 0.0

conv1.lin.weight f4 [128, 53]
000000 36 6a 07 be 74 a5 bb bc ae 8c af 3d 9c a9 32 be
       -0.1322411 -0.022906043 0.085717544 -0.17447513
000010 99 ff 35 3e b6 17 9c 3d c0 a8 85 3d 09 e6 2c 3e
       0.17773284 0.0762171 0.06526327 0.16884626
000020 58 cf 44 3c 7b 45 2d 3e db 44 22 3e 50 a3 4d bd
       0.012012325 0.16921036 0.15846579 -0.050204575
000030 38 ba 08 be b4 4e 24 be 0e ab f1 bd 77 6d 30 3e
       -0.13352287 -0.16045648 -0.11800204 0.17229258
000040 c6 21 c8 3d 71 0e 30 3e 5c e7 0e 3c e0 23 21 be
       0.09772067 0.17193009 0.008722153 -0.15736341
000050 02 68 cb bd db 14 35 3e 74 48 77 bd f3 57 35 3e
       -0.09931947 0.17683737 -0.06037183 0.17709331
000060 f8 76 70 bc d6 20 26 be 2c d5 3f bd 32 de 81 3d
       -0.014676802 -0.16223463 -0.046834156 0.063412085
000070 52 3e 95 3d 1c b5 11 be 05 a2 23 3e 53 89 20 3e
       0.07287277 -0.14229244 0.15979774 0.15677385
000080 30 35 54 bd 1c b4 2a be a6 57 08 be e3 9b 03 3e
       -0.051808536 -0.16670269 -0.13314685 0.12852435
000090 88 98 70 3d 27 e9 2b 3e 48 9d 0b 3d 09 d9 c4 bd
       0.058739215 0.1678816 0.034085542 -0.09611709
0000a0 6c ac 88 3c 68 36 59 3c 4f 20 2e be da e0 17 be
       0.01668378 0.0132576 -0.17004512 -0.14831868
0000b0 dd 40 10 3e 34 1c 49 3d 18 e3 6b 3d bb 23 ed bd
       0.14087243 0.049099162 0.05758962 -0.11579081
0000c0 4a fc 1c be 0a 42 d3 3d 24 d3 da bd dc b9 49 bd
       -0.15330616 0.1031533 -0.10684803 -0.049249515
0000d0 38 39 d1 bd 39 e3 1b bf fe a5 ae 3d da 85 0f be
       -0.10215992 -0.6089359 0.08527754 -0.14015904
0000e0 8b df 14 3e 42 d1 ec 3d 58 1a 63 bc 70 57 ea bc
       0.145384 0.1156335 -0.013861261 -0.028606147
0000f0 a6 ae fe bd d2 27 dc 3d 1c dc 31 be 4c 82 55 bd
       -0.12435655 0.107497826 -0.17369121 -0.052126214
000100 08 4c e6 bd 52 b4 d3 3d 11 ed de bd 6c 36 81 bd
       -0.112449706 0.10337128 -0.108850606 -0.06309208
000110 18 0b 76 3c 30 bf 2d bd 5c 35 47 3d d4 22 2c be
       0.015017293 -0.04241866 0.04863487 -0.16810161
000120 ba 2b f2 3d 2c 5d 48 3d fc 69 be bb 1b b3 25 3e
       0.118247464 0.04891698 -0.005810974 0.16181605
000130 fc 15 be 3b 34 84 50 3d 13 e9 2e 3e ec 45 0a 3c
       0.0058009606 0.05090733 0.17081098 0.008439522
000140 a4 2c 62 bd 19 10 2a be 14 6f 02 be 1f 48 25 be
       -0.055218354 -0.16607703 -0.12737685 -0.16140793
000150 38 bf ea bb f4 b7 5b bd de 9e ba 3d c5 8d 20 be
       -0.0071639083 -0.05364223 0.09112333 -0.15679081
000160 d0 a2 07 be 78 87 f6 bc d3 21 36 3e ed 40 19 3e
       -0.13245702 -0.030093893 0.1778634 0.14966173
000170 70 11 1c be 25 25 a2 bd 9b 75 36 3e bb 43 1e 3e
       -0.15241027 -0.07917241 0.178183 0.15455525
000180 32 13 ba 3d 3b 81 80 bd 98 a0 e1 3c ab f5 22 3e
       0.090856925 -0.06274649 0.027542397 0.15914027
000190 78 2b 64 3a 2d 8d 15 3e 34 2d b7 3c f8 3a 87 3e
       0.0008703987 0.14604636 0.022360422 0.26412177
0001a0 16 79 a3 3c 06 28 91 bd 64 0c 88 be 50 e0 2e bd
       0.0199552 -0.07087712 -0.26571953 -0.04269439
0001b0 5a fe 9c 3d da 8a a0 3d 2d 1a 34 3e 49 5c db bd
       0.07665701 0.07838984 0.1758811 -0.10710961
0001c0 ed a9 14 be cc 22 14 3c ee f5 95 3d bf 1f 2d be
       -0.14517947 0.009041499 0.07322298 -0.16906641
0001d0 f4 6e 2e be fe 8a e4 3d 56 a3 a4 3d f9 a1 14 be
       -0.17034513 0.11159323 0.08038966 -0.14514913
0001e0 50 82 de 3c 46 c8 6e bd 90 ed 76 bd 53 9c 26 3e
       0.027161747 -0.058296464 -0.06028515 0.1627057
0001f0 ac 03 29 bc 0d 71 e9 bd 84 76 52 bd 14 d9 39 be
       -0.010315817 -0.11398516 -0.051382557 -0.18149215
000200 3d da 37 3e 4d 7a 03 be b2 40 bc 3d 6c a7 13 bd
       0.17954345 -0.12839623 0.09192027 -0.036048338
000210 98 f4 c4 bb 73 9a c5 bd ad 64 14 3e 0c 08 03 bd
       -0.006010603 -0.096485995 0.1449153 -0.031990096
000220 cb 2b 12 3e 21 c5 38 be c1 c4 38 be b1 b9 11 3e
       0.14274518 -0.18043949 -0.18043806 0.14230992
000230 fe 87 10 be 2e 73 8f 3d 5c 68 31 bd 00 e1 38 be
       -0.14114377 0.07004391 -0.043312415 -0.1805458
000240 86 5e f4 3d 2b f7 d8 bd bb 41 19 3e 6b fd 8b bd
       0.119320914 -0.105940185 0.1496648 -0.06835445
000250 ea 8c 8c 3d 14 c3 a1 bc 3c 96 b8 3a 98 91 56 bd
       0.06862815 -0.01974634 0.0014082859 -0.052384943
000260 ad e8 b5 bd df e7 07 3e 28 6c a9 bd d9 e3 9f bd
       -0.0888227 0.13272046 -0.08272582 -0.0780713
000270 51 21 8b 3e 87 92 01 3e 91 4c f8 bd 8f e1 c7 bd
       0.27173856 0.12653552 -0.12123979 -0.09759819
000280 49 e8 eb bd 71 2f 31 3e 60 0e f3 bc dc 0f 28 3d
       -0.11518914 0.17303254 -0.02966994 0.04103075
000290 64 99 98 3c 98 a3 80 bd 7e 5b f6 3d 42 fd ea 3d
       0.01862783 -0.06281203 0.120291695 0.11474086
0002a0 2d 0e 15 3e 32 8f 9c bd 48 03 2d bd d8 f4 49 3c
       0.14556189 -0.076445 -0.042239457 0.012326442
0002b0 9a 53 ac 3d 24 ea 3a bd b1 2f 8a bd d4 e1 1c be
       0.08414383 -0.04563345 -0.06747378 -0.15320522
0002c0 52 71 84 3d 32 78 ab bd ea 76 f2 bd d7 72 30 be
       0.06466927 -0.08372535 -0.11839087 -0.17231308
0002d0 e1 b0 ed bd 46 48 db 3d 5f 55 02 3e 64 c2 39 bd
       -0.116060026 0.107071444 0.12727879 -0.0453514
0002e0 7f d5 17 3e 9c 12 bc bb 40 b2 47 3d a8 79 2f be
       0.14827536 -0.005739523 0.048753977 -0.17136252
0002f0 2e f8 f1 3d 76 ff 8e 3d 68 d5 25 bd 95 a1 14 3e
       0.11814915 0.06982319 -0.040486723 0.14514764
000300 14 70 4f 3d f6 b2 8c 3d fc 50 23 3b 07 1f 0e be
       0.050643995 0.068700716 0.0024920097 -0.13879023
000310 d8 a0 20 3d c0 93 f2 3c 85 22 08 3e 7c 0a 0d bd
       0.039215893 0.029611468 0.13294418 -0.034433827
000320 2a f5 cd 3d 6e 9e 27 be 64 70 87 3d 72 f9 e6 3d
       0.10056527 -0.1636903 0.06613234 0.11278047
000330 fb db 05 be 5c b6 35 be 9c 53 a9 bd aa ff ff 3d
       -0.13072197 -0.17745346 -0.082679 0.12499936
000340 86 26 fb 3d fe 36 f9 bd b1 2d 50 3d 7e 21 d6 3d
       0.12263207 -0.12168692 0.050824825 0.10455607
000350 68 c8 5b be 38 0e 7b bc bc 83 32 bc c5 4b 93 bd
       -0.21463168 -0.015323214 -0.010895666 -0.07192186
000360 08 b9 ff 3c 02 99 ef 3d fa 90 9c 3d 66 62 af 3d
       0.03121616 0.11699106 0.076448396 0.0856369
000370 4a 43 2f be 48 95 1a be 8e dd 70 bd e5 94 1c 3e
       -0.17115512 -0.15096009 -0.05880504 0.15291174
000380 41 f6 33 be 5c 56 32 be 94 75 34 3d 90 67 0f bd
       -0.17574407 -0.17415756 0.044057444 -0.035010874
000390 72 0f ba 3d 2b 59 30 be 2c 79 27 bd 98 fc 33 be
       0.09084977 -0.17221515 -0.040887043 -0.17576826
0003a0 ca 91 ec bd 8e b4 95 3d 1c e4 b9 3c 34 ab b1 3c
       -0.115512446 0.07309829 0.022691779 0.021688081
0003b0 ba 9d cf 3d 5b a5 35 3e 18 15 40 bc 56 21 ef 3d
       0.10137506 0.1773886 -0.011723779 0.1167628
0003c0 9e ae db bd cc e1 6d bd 0a 86 ca bd 49 ec e3 bd
       -0.10726665 -0.058076665 -0.09888847 -0.11129052
0003d0 ba c8 20 be b4 56 0a be 37 33 03 be 7a 63 d1 3d
       -0.15701571 -0.13509637 -0.12812506 0.10224052
0003e0 7c 7f e1 bd bc b1 90 bc fc 5a 66 bd 40 26 e9 bc
       -0.11010644 -0.017662875 -0.056239113 -0.028460622
0003f0 40 c5 fe bc 42 18 9f 3d a5 e2 a1 bd c4 fb 1a bd
       -0.031099916 0.07768299 -0.07904557 -0.03783776

conv2.bias f4 [64]
000000 2b 12 de 3c d3 1e 6e bc 9b 2a b8 3d b9 ae cb bc
       0.027108273 -0.014533716 0.08992501 -0.024863588
000010 87 e6 1c be 70 df 03 3c aa 9c 3a bd 13 9d c8 3c
       -0.15322314 0.008048877 -0.045559563 0.024488961
000020 e4 fc 0e bc ea 0f 66 bd de 7a 88 3d 3d 79 04 bd
       -0.008727286 -0.05616752 0.0666406 -0.032342184
000030 97 5e 32 bc 73 86 82 3c f0 55 9d bc 34 e7 aa 3c
       -0.01088681 0.015933251 -0.019206017 0.0208622
000040 c8 a2 9e bc 6e 71 0d bd 2d e1 98 3b 7b ed 35 bc
       -0.01936473 -0.034532003 0.004665515 -0.011103983
000050 72 f0 9c bd dd ee f0 bb 9e 29 eb bc 25 f6 01 bd
       -0.07663049 -0.0073526935 -0.028706368 -0.031728882
000060 fe 6f 98 3c a2 22 10 bc 17 8d 5c 3c c9 69 0d 3d
       0.01860809 -0.00879732 0.013461373 0.034524713
000070 15 e3 22 3d 91 5b 1e 3c f9 17 b5 3d b3 a3 d8 bc
       0.039767344 0.009665386 0.08842463 -0.026445245
000080 85 93 99 bd 39 fa 19 bc 0d 8a 6a bd 6b df 84 bc
       -0.0749884 -0.009398037 -0.05726056 -0.016219815
000090 45 60 a4 3c 00 1d 12 3e 94 46 9b bb 7b 36 c1 3c
       0.020065436 0.14268875 -0.004738638 0.023585549
0000a0 96 36 de 3c ea a5 d6 bc 58 49 09 be 02 e9 cd bc
       0.027125638 -0.02620216 -0.13406885 -0.02513552
0000b0 9e 21 2d bc bf db cf 3b b9 11 56 bb 27 b1 b5 bd
       -0.010567097 0.0063433344 -0.0032664372 -0.0887168
0000c0 52 5f 6f bc 33 1b 85 3b 9c 2f b1 3c 5e 15 39 3d
       -0.0146101285 0.0040620803 0.021629147 0.045186393
0000d0 f7 1b b4 3c 77 b0 cd 3b eb 81 18 bc f0 cf eb 3b
       0.02198599 0.0062771398 -0.009308319 0.007196419
0000e0 6f d8 51 bd 0f 47 fa 3c 54 63 db bd be 85 86 bd
       -0.051231798 0.030551462 -0.10712305 -0.06568478
0000f0 1a c1 61 bd b5 3a 8d bc 22 7e a8 bc e1 c0 c4 3c
       -0.055115797 -0.017239908 -0.020567957 0.024017753

conv2.lin.weight f4 [64, 128]
000000 f4 4c eb bd 83 19 9f 3c 6c 93 f0 bd 7e 75 22 3d
       -0.11489287 0.019421345 -0.117468685 0.03966283
000010 d2 a6 f9 bd 3c a7 b1 bc a2 c2 af 3d d9 71 9a 3e
       -0.121900216 -0.021686189 0.08582045 0.30164984
000020 a2 89 bf 3d 1c 60 e9 bb c8 a0 80 bd 18 4b 83 bd
       0.09352423 -0.007122053 -0.062806666 -0.06410807
000030 b7 28 a3 bb 3e de ee 3d 57 9f af bb 30 8e 61 3d
       -0.004979219 0.11663483 -0.005359571 0.05506724
000040 b0 a7 b5 3d de ad 8f 3d f2 a3 2f 3e b6 13 f6 3d
       0.088698745 0.070155844 0.17152384 0.12015478
000050 25 54 c8 3e 63 e9 88 be 8c 9b 1b be a9 a2 7e be
       0.39126697 -0.2674056 -0.15196055 -0.24866737
000060 e1 c4 42 3e f6 18 1b be b8 61 c6 bd c8 b5 d8 bd
       0.19020416 -0.1514624 -0.09686607 -0.10581547
000070 78 7a e0 bc 14 7b 1e be a0 01 8b bd 6f 20 16 be
       -0.027402148 -0.15476638 -0.06787419 -0.1466081
000080 48 1c 32 3e 8f 27 87 3e 4c 7d f6 bd 4e ce b9 bd
       0.17393601 0.26397368 -0.12035617 -0.090725526
000090 f6 7c bf bd 81 ab 1c 3e 0c ca ac bb 8c 86 20 bc
       -0.09350006 0.15299799 -0.0052731093 -0.0097977035
0000a0 6f 9a d0 bd 0e 7d ae 3d 7a f1 14 3e bb 4a 15 be
       -0.10185706 0.08519946 0.14545241 -0.14579289
0000b0 69 b9 01 bd 89 9e 04 3e 97 36 2d 3e 14 92 b5 3c
       -0.03167096 0.12951101 0.16915356 0.022164382
0000c0 1b ab 21 3e 39 85 76 3d e1 70 2d be 9b 00 f9 bd
       0.15787928 0.060185645 -0.16937591 -0.121583186
0000d0 e4 79 0a 3e a5 3a bd 3d e2 9d e9 bd 5f ef c3 bc
       0.1352306 0.09239701 -0.11407067 -0.023917852
0000e0 7a da ce 3e 73 5d cc bd 22 85 ad bd 9a c8 45 be
       0.4040106 -0.099787615 -0.08472659 -0.19314805
0000f0 c4 d8 ff bc 2d b2 1d 3d 46 3a 08 be 21 d4 9a bc
       -0.031231292 0.0385 -0.1330348 -0.01889998
000100 19 77 9b bd 8c 00 21 bd 7d 09 93 3d b5 44 87 3e
       -0.075910755 -0.039307162 0.07179544 0.26419607
000110 18 b4 3b be 2f 72 2c 3e 76 92 b8 3d 21 d5 07 3e
       -0.18330419 0.16840433 0.0901231 0.13264896
000120 01 b0 93 be 21 a3 47 3e 48 d1 a3 3e b8 57 22 3e
       -0.28845218 0.19495822 0.31995606 0.15853775
000130 c0 c3 d7 3c 99 6d 2e 3e 41 05 8f be 89 54 4b 3e
       0.026338458 0.17033996 -0.27933696 0.19856466
000140 b6 f2 a6 3d 18 53 62 3e 91 d2 47 be cc 85 e2 bd
       0.08151762 0.2210201 -0.19513918 -0.11060676
000150 20 60 8c 3d 74 df 98 3c 9f f0 34 3d 31 3a c0 bd
       0.06854272 0.018661238 0.044174787 -0.09386099
000160 6a b0 20 3e 0e c6 a7 bc 78 e3 a3 be 57 2a 71 bc
       0.15692297 -0.020480182 -0.32009482 -0.014719567
000170 a0 b2 1d bd c0 2a d6 bd b5 10 9e 3c db 79 80 3d
       -0.03850043 -0.10457373 0.019295076 0.06273242
000180 0d 66 12 3e 9b 2f 24 3e 41 aa 61 b9 8d fa c0 bd
       0.14296742 0.16033785 -0.00021521097 -0.09422789
000190 4d 4f e7 bd fc 9b 9c be 68 2b da bd 9b 2e 4a 3b
       -0.11294422 -0.30587757 -0.1065281 0.0030850533
0001a0 dd 1e cd 3c 10 ec 9f 3d 8f bf 47 3d 9c e4 0e bd
       0.02503913 0.07808697 0.04876667 -0.034885988
0001b0 66 aa f6 3c 01 19 40 be cd a3 a3 be a6 9c 3b 3e
       0.03011055 -0.18759538 -0.31960908 0.18321475
0001c0 67 3b 2e 3d f0 6a ec 3c d8 36 f1 3b 06 b0 a4 3d
       0.04253712 0.028859586 0.007361274 0.08041386
0001d0 84 9a a3 3e 3f 1a b8 bc b7 bd d6 bd ac 16 76 bd
       0.31953824 -0.022473453 -0.10485404 -0.060080215
0001e0 d4 4b 7f bd 48 d1 f3 bc ab 43 e7 3d 25 90 41 be
       -0.062328175 -0.029762879 0.112922035 -0.18902643
0001f0 68 13 ce bc 6f 56 2d 3d f5 c5 1f 3e 18 c9 f7 3b
       -0.025155738 0.042318758 0.15602858 0.007561814
000200 90 2c f9 bd f4 c8 3a be 8c 30 26 bd 22 07 34 bd
       -0.12166703 -0.1824072 -0.04057364 -0.043952115
000210 92 ee 90 3e dc 83 57 bd 57 e1 b4 bb 20 67 f6 3d
       0.28307015 -0.052615985 -0.0055200267 0.12031388
000220 c3 6f 07 3e 16 63 45 3c bb 06 9b bd 0b 05 24 bc
       0.13226227 0.01204755 -0.07569643 -0.010010968
000230 74 4b ad 3e de bc 12 be c5 aa d9 3d 6f 3b ba 3d
       0.3384663 -0.1432986 0.10628275 0.09093367
000240 fc 5f 51 be b8 b8 f4 bc 03 7c b7 3d d8 e9 7b 3d
       -0.20446771 -0.029873237 0.089592 0.061502308
000250 7f 51 3d be 75 0b 6a 3e 3e 59 5b 3e 4c 42 ad 3e
       -0.1848812 0.22855933 0.21420762 0.33839643
000260 a8 66 1d bd be 5c 58 bd fd d4 00 bd 54 84 5e bd
       -0.03842798 -0.05282282 -0.03145312 -0.054325417
000270 4c 03 00 bd 6a 0c 8a 3e 3d 64 de 3d 33 dc ae 3e
       -0.031253144 0.26962596 0.10858963 0.34152374
000280 97 c3 a7 bd ce 03 46 3d 61 7a 50 be 31 fd 22 be
       -0.08191603 0.048343472 -0.20359184 -0.15916897
000290 f6 29 e8 3d 54 7a 3f be 62 f8 03 bd 89 09 09 bd
       0.113361284 -0.18699008 -0.0322193 -0.03345636
0002a0 55 07 01 3e 27 1b 1a 3e ff 23 a8 3e e3 a2 3f bc
       0.12600453 0.1504942 0.32839963 -0.01169655
0002b0 a3 d2 18 be 81 0d e6 bd 39 81 02 3e 17 71 02 3e
       -0.14924102 -0.112330444 0.12744607 0.12738453
0002c0 96 7f 34 3c f7 b8 94 be d3 98 1f 3e bc b7 da bc
       0.011016747 -0.29047367 0.15585642 -0.02669894
0002d0 eb 94 19 be c2 c6 f5 3c 9a 74 01 be 39 4a 73 bd
       -0.14998214 0.030002002 -0.12642136 -0.059396956
0002e0 b9 de 91 be 22 37 9d bd 11 ec fd bd 13 cb 27 be
       -0.28490236 -0.076765314 -0.12398542 -0.1638606
0002f0 64 21 87 3d a8 55 4e bc c8 eb 42 be f5 ae 18 3d
       0.06598166 -0.012593664 -0.19035256 0.037276227
000300 bb 6d a0 3d 46 cd a4 3d 6a 88 e5 3d 93 9f 48 3e
       0.078334294 0.08046965 0.112076595 0.19592123
000310 50 4f 63 3d f9 df 6a 3d 90 52 51 bd 88 e4 0e bd
       0.05549556 0.057342503 -0.05110413 -0.034885913
000320 fc 51 2b 3b ff f4 90 be 1a 19 2e 3e 27 a2 04 be
       0.0026141396 -0.28311917 0.17001763 -0.12952481
000330 4a 86 d0 ba b2 56 83 3d 11 14 7b 3e 85 e0 11 3e
       -0.0015909162 0.0641302 0.24519373 0.14245804
000340 99 1a 6e 3d a3 d1 ab 3c a1 d4 41 be 08 c7 09 be
       0.058130834 0.020973986 -0.18928768 -0.1345483
000350 a5 1d a8 bd 32 74 df bd 8a 5d 00 3e 53 ba f3 bd
       -0.08208779 -0.10910834 0.12535682 -0.11900773
000360 e7 14 5a 3e a2 db 86 3d 81 07 0d 3e 89 5a 3d bc
       0.21297036 0.065848604 0.13772394 -0.01155723
000370 94 79 05 3d 7f 91 4e be eb c6 84 3d df 27 66 3e
       0.03258665 -0.2017269 0.06483253 0.22476147
000380 a2 92 09 be 5e 48 27 be 2f aa c4 bd 48 07 7e 3e
       -0.13434842 -0.163362 -0.096027724 0.24807465
000390 00 71 85 3d aa 5f b4 bc 5e 15 10 bc ec bd aa 3d
       0.06515694 -0.022018272 -0.008794157 0.08337006
0003a0 39 c3 97 3e 3b 17 be 3d 49 24 14 bd c8 69 31 be
       0.2964113 0.092817746 -0.036167417 -0.17325509
0003b0 7a cb a5 3d 8f f2 77 3d ea 7e 46 3c 82 42 8a 3e
       0.08095451 0.060534056 0.01211522 0.27003866
0003c0 ba 96 57 be 90 32 f5 3c 82 b9 ed 3d 9f b2 e7 bd
       -0.21053591 0.029931337 0.116076484 -0.11313366
0003d0 d9 df 10 3c 80 23 e6 bd 4c 5b 0a bc 9d 4e b0 3e
       0.008842432 -0.1123724 -0.008444618 0.34434977
0003e0 e2 c8 c2 3d 71 bf c0 3c 0b 0e dc 3b f6 79 07 bd
       0.095109716 0.023528786 0.0067155412 -0.033075295
0003f0 b8 11 cd 3c 7a 5d 07 be 51 9d 07 3b f8 3c 1d bd
       0.025032863 -0.13219252 0.0020693133 -0.038388222
